…
ply":"2024-12-02T06:03:13.911886Z"}},"outputs":[{"name":"stdout","text":"WARNING:tensorflow:From /opt/conda/lib/python3.6/site-packages/tensorflow/python/framework/op_def_library.py:263: colocate_with (from tensorflow.python.framework.ops) is deprecated and will be removed in a future version.\nInstructions for updating:\nColocations handled automatically by placer.\n_________________________________________________________________\nLayer (type)                 Output Shape              Param #   \n=================================================================\ninput_1 (InputLayer)         (None, 30)                0         \n_________________________________________________________________\ndense_1 (Dense)              (None, 14)                434       \n_________________________________________________________________\ndense_2 (Dense)              (None, 7)                 105       \n_________________________________________________________________\ndense_3 (Dense)              (None, 7)                 56        \n_________________________________________________________________\ndense_4 (Dense)              (None, 30)                240       \n=================================================================\nTotal params: 835\nTrainable params: 835\nNon-trainable params: 0\n_________________________________________________________________\n","output_type":"stream"}],"execution_count":45},{"cell_type":"markdown","source":"* Regularization:\n    - L1 regularization (specified in the first encoder layer) penalizes large weights, 
…
nautoencoder.summary()\n\n","metadata":{"trusted":true,"execution":{"iopub.status.busy":"2024-12-02T06:06:44.067037Z","iopub.execute_input":"2024-12-02T06:06:44.067343Z","iopub.status.idle":"2024-12-02T06:06:44.163453Z","shell.execute_reply.started":"2024-12-02T06:06:44.067281Z","shell.execute_reply":"2024-12-02T06:06:44.162582Z"}},"outputs":[{"name":"stdout","text":"_________________________________________________________________\nLayer (type)                 Output Shape              Param #   \n=================================================================\ninput_2 (InputLayer)         (None, 30)                0         \n_________________________________________________________________\ndense_5 (Dense)              (None, 128)               3968      \n_________________________________________________________________\ndense_6 (Dense)              (None, 64)                8256      \n_________________________________________________________________\ndense_7 (Dense)              (None, 32)                2080      \n_________________________________________________________________\ndense_8 (Dense)              (None, 32)                1056      \n_________________________________________________________________\ndense_9 (Dense)              (None, 64)                2112      \n_________________________________________________________________\ndense_10 (Dense)             (None, 30)                1950      \n=================================================================\nTotal params: 19,422\nTrainable params: 19,422\nNon-trainable params: 0\n_________________________________________________________________\n","output_type":"stream"}],"execution_count":48},{"cell_type":"code","source":"# Hyperparameters\nnb_epoch = 20  # Increased epochs for more training time\nbatch_size = 64  # Experiment
…
